HW3/code/best_mlp_model.pth (torch, 273038 bytes, 6 tensors)

fc1.weight f4 [256, 3]
0	0x3ecfaded	0.40562382
1	0x3f477c76	0.7792429
2	0xbe289a86	-0.16465196
3	0x3e5ba2bc	0.21448797
4	0x3e5b5657	0.21419655
5	0x3ef92f4a	0.4866889
6	0xbe8fea7d	-0.28108588
7	0x3ead9a4c	0.33906782
8	0x3f024b24	0.50895905
9	0xbed8dce9	-0.4235604
10	0x3f0077fa	0.5018307
11	0x3ddd4cb8	0.108056486
12	0x3ef13bbf	0.47115895
13	0x3dc549f4	0.09633246
14	0x3ea149ae	0.31501526
15	0xbda6f234	-0.08151665
16	0x3ee3e05c	0.4450711
17	0x3daec570	0.08533752
18	0xbe89ffdb	-0.26953015
19	0x3e16b294	0.1471656
20	0xbe8831fe	-0.2660064
21	0xbcfedf68	-0.031112388
22	0xbe9b1c7c	-0.3029517
23	0x3ee96284	0.45582974
24	0xbee95728	-0.45574307
25	0xbe8846b5	-0.26616445
26	0xbe26f11c	-0.16302913
27	0xbeaca2c2	-0.33717924
28	0x3e479c45	0.19493206
29	0xbf1fdcfd	-0.62446576
30	0x3ed01b54	0.4064585
31	0xbef9518c	-0.48695028
32	0x3f233d76	0.63765657
33	0x3e1d1742	0.15340903
34	0xbe95e391	-0.29275182
35	0x3eb9f5ed	0.3632044
36	0x3e0b3699	0.13595046
37	0x3f107ae2	0.56437504
38	0x3db5a63f	0.088695996
39	0xbe3a7362	-0.18208078
40	0x3e1ed8fc	0.1551246
41	0xbe2052b6	-0.15656552
42	0x3e83c006	0.2573244
43	0x3f2780b4	0.6543076
44	0x3eb10065	0.34570614
45	0xbe813acb	-0.25240168
46	0x3eaaa430	0.3332839
47	0x3dd39098	0.103303134
48	0x3df696b4	0.12040463
49	0xbe91999b	-0.28437504
50	0xbf0704b9	-0.5274158
51	0xbe646b3e	-0.22306535
52	0xbee2bc09	-0.44284084
53	0x3ef28dd4	0.4737383
54	0x3dea50b8	0.11441177
55	0x3ee45a2a	0.4460004
56	0x3ea1db21	0.31612495
57	0xbdd36638	-0.10322231
58	0x3f45b8e5	0.7723525
59	0xbec48222	-0.38380533
60	0x3da90b59	0.082541175
61	0xbf070c05	-0.52752715
62	0x3c61b12a	0.013775149
63	0xbe8d6087	-0.27612707
64	0x3ecbbebe	0.39793962
65	0x3d323f62	0.043517478
66	0x3e9b9fc0	0.30395317
67	0xbeaa059a	-0.332074
68	0xbe497e82	-0.19677165
69	0xbeb04ed1	-0.34435132
70	0x3f04f06c	0.51929355
71	0x3e450530	0.1924026
72	0x3de6057f	0.11231517
73	0xbdf15b95	-0.11785046
74	0xbe1ce26a	-0.15320745
75	0xbee744f4	-0.45169795
76	0xbec6d961	-0.38837722
77	0x3e6f7664	0.23385006
78	0x3d70996e	0.058740072
79	0x3f4552ab	0.77079266
80	0xbe15b0b0	-0.14618182
81	0xbec9842b	-0.3935865
82	0x3e9cd736	0.30632943
83	0xbe6ef7e8	-0.23336756
84	0x3ed27676	0.41106004
85	0xbe740b11	-0.23832346
86	0x3ebc4fee	0.36779732
87	0xbee5aca1	-0.44858268
88	0xbe952d18	-0.29135966
89	0x3e343eb8	0.1760205
90	0x3df9f898	0.122056186
91	0xbe16bbba	-0.1472005
92	0x3eb0333a	0.34414083
93	0xbd360434	-0.044437602
94	0xbd866d8a	-0.06563862
95	0x3dc1346a	0.09433825
96	0x3e967c4d	0.2939171
97	0xbdec71f1	-0.1154517
98	0xbcb015fa	-0.021494854
99	0xbf03e64f	-0.515233
100	0xbeeba72c	-0.4602598
101	0x3e71b37c	0.23603624
102	0xbd9c1208	-0.07620627
103	0xbed69306	-0.41909045
104	0x3c5de240	0.013542712
105	0xbf076e4b	-0.5290267
106	0xbf05e6ed	-0.5230549
107	0xbe89d44f	-0.2691979
108	0xbf015b99	-0.5053039
109	0xbebc38ce	-0.3676209
110	0x3f13be6e	0.5771245
111	0x3e0f69d4	0.14005214
112	0x3ea15237	0.31508037
113	0xbf1a9e7a	-0.60398066
114	0xbec22500	-0.37918854
115	0xbe44c95e	-0.1921744
116	0x3db8e530	0.09028089
117	0xbf09ac77	-0.53778785
118	0xbea5561d	-0.32292262
119	0xbec45449	-0.38345554
120	0xbe3cd99b	-0.18442385
121	0xbe095810	-0.134125
122	0x3e7560fb	0.23962776
123	0xbec84f42	-0.3912297
124	0xbecae694	-0.39629042
125	0xbeac749c	-0.33682716
126	0xbe4a5e58	-0.19762552
127	0xbee95066	-0.45569152
128	0x3ef7dac0	0.4840908
129	0xbdeaaaa0	-0.114583254
130	0x3efe560c	0.49675024
131	0x3e38359c	0.179892
132	0xbefa50e6	-0.48889846
133	0x3ecc9162	0.39954668
134	0xbe22aade	-0.15885493
135	0xbecfbb8a	-0.40572768
136	0xbee9def9	-0.45677927
137	0xbef45be4	-0.47726357
138	0x3d56578c	0.052329585
139	0xbde5a7ff	-0.11213683
140	0x3ee8c89e	0.4546556
141	0xbef29742	-0.47381026
142	0x3edb76ec	0.42864168
143	0xbed8fd1e	-0.42380613
144	0xbdc0e861	-0.09419323
145	0x3e1f2470	0.15541244
146	0x3ed57643	0.4169179
147	0x3e4200b7	0.18945585
148	0x3f5bf2ed	0.8591755
149	0xbe18c41a	-0.14918557
150	0x3e01a617	0.12661014
151	0xbec78d4b	-0.38974985
152	0xbd19e807	-0.037574794
153	0xbef251cc	-0.4732803
154	0x3f4fda50	0.81192493
155	0xbedccc8c	-0.43124807
156	0x3e633077	0.22186457
157	0x3ec68474	0.3877293
158	0x3eba972b	0.36443457
159	0xbe894a34	-0.26814425
160	0x3f15728a	0.583779
161	0x3e3ead7d	0.18620868
162	0x3ddf6487	0.10907846
163	0xbf1e4fa6	-0.61840284
164	0x3db9a11f	0.090639345
165	0xbdb162e8	-0.08661443
166	0xbe876c4e	-0.26449817
167	0x3efde850	0.49591303
168	0x3c2c0785	0.01049984
169	0xbebcdc27	-0.36886713
170	0xbe88bdc9	-0.26707295
171	0xbc9d607b	-0.019211045
172	0x3f19f311	0.60136515
173	0xbe59a617	-0.21254764
174	0xbee7cbcd	-0.45272675
175	0xbe5d421a	-0.21607247
176	0xbed24a46	-0.4107229
177	0x3e326366	0.1742073
178	0x3f390bb9	0.7228351
179	0xbf0f8429	-0.56061035
180	0x3dbcb6d9	0.09214563
181	0x3eed7af9	0.46382883
182	0x3e6b7e88	0.22997487
183	0xbe528b14	-0.20560867
184	0x3e9a49b0	0.30134344
185	0x3e9b57ec	0.30340517
186	0x3ca46df8	0.020071968
187	0x3e0ce252	0.1375821
188	0x3e37c161	0.17944862
189	0xbb1155ff	-0.0022176502
190	0xbd989824	-0.074508935
191	0xbe574047	-0.21020614
192	0x3ebcf3a2	0.36904627
193	0x3efe0a98	0.49617457
194	0xbd6a1c90	-0.057156146
195	0xbe045e8c	-0.12926692
196	0x3c0a0880	0.008424878
197	0xbd0d3320	-0.034472585
198	0x3e19b735	0.15011294
199	0x3ea1b3d1	0.31582502
200	0xbf14e9c5	-0.58169204
201	0xbe2ac033	-0.1667488
202	0x3ebdcba5	0.3706943
203	0x3e8c1a8f	0.27364013
204	0x3b19cdce	0.0023468616
205	0xbef0dd7d	-0.47043982
206	0xbecf3d35	-0.40476385
207	0xbf046555	-0.5171712
208	0xbe40b60e	-0.18819448
209	0x3e47a728	0.19497359
210	0x3e316550	0.17323804
211	0x3f0ed185	0.5578845
212	0xbea6102f	-0.32434222
213	0xbeb1c3c6	-0.34719676
214	0xbdba9ac0	-0.091115475
215	0x3f0ef9d2	0.55849946
216	0x3d1074b5	0.03526755
217	0xbe84ede8	-0.25962758
218	0x3ec3fd3f	0.3827915
219	0xbe612e02	-0.21990207
220	0xbebf54b8	-0.37369323
221	0x3ed7c1d2	0.4214006
222	0xbe86694f	-0.2625222
223	0xbded08d8	-0.115739524
224	0xbf1308a2	-0.5743505
225	0x3ec5d6b0	0.38640356
226	0x3edff598	0.4374206
227	0x3e5776d4	0.21041423
228	0xbebb125d	-0.36537448
229	0xbf2c754c	-0.6736648
230	0xbf089d1b	-0.53364724
231	0x3ef5ea12	0.48030144
232	0x3e9474bb	0.28995308
233	0x3eecdf02	0.4626389
234	0x3e5fdfe9	0.21862759
235	0x3eb53d0f	0.35398147
236	0x3e2041b1	0.1565006
237	0xbed4b27f	-0.41542432
238	0xbf1f9563	-0.6233732
239	0xbf10b8a0	-0.56531715
240	0x3aaf7d39	0.001338876
241	0xbd9a2b1f	-0.07527756
242	0x3dbfb65c	0.09360954
243	0xbf014e66	-0.5051025
244	0xbbda4967	-0.0066615823
245	0xbe829ef9	-0.25511912
246	0xbec126e0	-0.37724972
247	0x3e441c10	0.1915133
248	0xbe2fb45a	-0.17158642
249	0x3e3f5993	0.18686514
250	0xbe1526b5	-0.14565547
251	0xbeb14b0d	-0.34627572
252	0xbdd09fac	-0.10186705
253	0xbe8f4aff	-0.27986905
254	0xbe34dfec	-0.17663544
255	0xbf0cb4e0	-0.54963493

fc1.bias f4 [256]
0	0xbed09438	-0.40738082
1	0x3e82703b	0.2547625
2	0x3e61fadc	0.22068352
3	0x3e6d37f0	0.2316587
4	0xbe9a0517	-0.30082008
5	0xbe819763	-0.2531081
6	0xbdb27d7c	-0.087153405
7	0xbd8d4af6	-0.06899063
8	0xbeca8fcc	-0.39562833
9	0x3d6ba554	0.057530716
10	0xbd6bceb3	-0.05757017
11	0xbc81408f	-0.015777854
12	0x3e01089b	0.12600939
13	0xbe6a533c	-0.22883314
14	0x3e288c73	0.16459827
15	0x3e5ef7c8	0.21774209
16	0xbef42d27	-0.47690699
17	0xbf128e9a	-0.5724884
18	0x3e802a31	0.2503219
19	0x3d367015	0.044540484
20	0xbe7d6207	-0.24744426
21	0x3ef54c08	0.4790957
22	0xbedf3ba5	-0.43600193
23	0x3ec7c0c4	0.39014256
24	0xbe19f142	-0.15033439
25	0xbef7d613	-0.48405513
26	0x3e65bf19	0.22436179
27	0xbf07e64e	-0.5308579
28	0xbe84b6dd	-0.25920764
29	0xbdc5203c	-0.09625289
30	0xbec7401a	-0.38916093
31	0x3e0224ec	0.12709397
32	0xbeb37aab	-0.35054526
33	0x3e8ba2bc	0.27272594
34	0xbf03f94f	-0.5155229
35	0x3e4a751a	0.19771233
36	0xbe37bcc8	-0.17943108
37	0xbed0fb5c	-0.40816772
38	0x3dace560	0.08442187
39	0x3e7fefd4	0.24993831
40	0x3ea091dc	0.31361282
41	0xbeb48d66	-0.35264128
42	0xbe9177b9	-0.28411654
43	0x3de35590	0.11100304
44	0x3e205f18	0.15661275
45	0x3d19d8e0	0.037560344
46	0x3e50eeec	0.20403641
47	0xbe060eee	-0.13091633
48	0x3ea70b4f	0.32625815
49	0x3e189b6b	0.14903037
50	0xbe2d9320	-0.16950655
51	0x3ebd3ee9	0.3696206
52	0x3e4811d2	0.19538048
53	0x3f0da1d8	0.5532508
54	0xbe962959	-0.2932842
55	0xbe91f8ba	-0.28510076
56	0xbe91ffac	-0.28515375
57	0x3d1a345b	0.037647586
58	0x3e649379	0.22321881
59	0xbeb8f9ea	-0.3612817
60	0x3e7d09d6	0.24710783
61	0xbe53e0a2	-0.2069116
62	0x3e1ca3ab	0.1529681
63	0xbdbb2cd6	-0.09139411
64	0xbf017cb3	-0.505809
65	0xbea2a78e	-0.3176846
66	0xbed0270b	-0.40654787
67	0x3eaa5256	0.33265942
68	0xbeb64ff2	-0.35607868
69	0xbd450880	-0.04810381
70	0xbd900739	-0.070326276
71	0xbea21b78	-0.31661582
72	0x3df24601	0.118297584
73	0xbf105127	-0.5637383
74	0xbed381b6	-0.413099
75	0xbf05ed32	-0.52315056
76	0xbe0cbcb1	-0.13743855
77	0xbe2468e0	-0.16055632
78	0xba978f63	-0.0011563118
79	0xbdaa337f	-0.08310603
80	0x3d151367	0.036395457
81	0x3eb68447	0.35647795
82	0x3e541ea4	0.20714813
83	0xbecb4596	-0.39701527
84	0xbf0a663c	-0.5406225
85	0x3e5622dc	0.20911735
86	0xbe15c4de	-0.1462588
87	0x3ea9e467	0.3318207
88	0x3e8664d6	0.26248807
89	0x3d0d625a	0.034517623
90	0x3ea4176a	0.32049114
91	0x3e888305	0.2666246
92	0x3dfa5d38	0.12224811
93	0xbed76330	-0.42067862
94	0x3e813cbd	0.25241652
95	0xbe4f3b85	-0.20237549
96	0xbeb3fb58	-0.35152698
97	0x3e78bc92	0.24290684
98	0x3e0f5956	0.13998923
99	0x3cf18e58	0.02948682
100	0xbd8e6d00	-0.06954384
101	0xbef8a6c5	-0.48564735
102	0xbd757a90	-0.059931338
103	0x3efe69f7	0.4969022
104	0x3e168e54	0.14702731
105	0x3e00de9c	0.12584919
106	0xbdf48e5f	-0.11941218
107	0xbe4e33d2	-0.20136955
108	0x3e535a5a	0.20639935
109	0x3d11d5e0	0.035604358
110	0x3c8cbe52	0.017180596
111	0xbdd14918	-0.1021902
112	0x3e65e9d9	0.22452487
113	0x3df64a33	0.12025871
114	0x3bf91a0b	0.0076019815
115	0x3ea02135	0.31275335
116	0x3eb93d16	0.36179417
117	0x3ed205bc	0.4102
118	0x3ee340b4	0.44385302
119	0xbdbaa5a7	-0.09113627
120	0xbefa4385	-0.48879638
121	0x3e10b310	0.14130807
122	0xbe4e5e61	-0.2015319
123	0xbe1a33a4	-0.15058762
124	0xbdc6002c	-0.096680015
125	0x3cde7300	0.027154446
126	0x3e2615f6	0.16219315
127	0x3e384db0	0.17998385
128	0xbe514023	-0.20434622
129	0xbe731e72	-0.23742083
130	0xbe1266ba	-0.14297
131	0xbe98f6aa	-0.2987569
132	0x3f1040b7	0.56348747
133	0x3ebe6955	0.37189737
134	0x3ea74b11	0.3267446
135	0x3c3c6b2a	0.011500159
136	0x3dee7558	0.11643475
137	0x3e4d0274	0.20020467
138	0xbf1c19d3	-0.60976905
139	0xbe322051	-0.1739514
140	0xbe11955b	-0.14217131
141	0xbea5bb30	-0.32369375
142	0xbed8f90f	-0.42377517
143	0x3eb261e3	0.34840307
144	0x3ec082e4	0.37599862
145	0x3d365f39	0.044524405
146	0x3edc9b36	0.43087167
147	0xbe56f168	-0.20990527
148	0xbec27e0a	-0.37986785
149	0xbd11910f	-0.03553873
150	0xbe54f50e	-0.20796606
151	0xbde807d8	-0.11329621
152	0xbef45596	-0.47721547
153	0x3e1ed598	0.15511167
154	0xbe8729ec	-0.2639917
155	0xbc159c82	-0.009131553
156	0x3ec36c90	0.38168764
157	0xbe45ab3d	-0.19303603
158	0xbe3a57ee	-0.18197605
159	0x3eb391f5	0.35072294
160	0xbeb76771	-0.35821107
161	0xbe3d4565	-0.18483503
162	0x3eb9facc	0.36324155
163	0xbe84541c	-0.2584542
164	0xbed37a47	-0.41304228
165	0xbea56ebc	-0.32311046
166	0xbe23e8d4	-0.16006786
167	0xbe8c436f	-0.27395198
168	0xbecfe94b	-0.40607676
169	0x3e5003e6	0.20313987
170	0x3d7245f4	0.059148744
171	0xbe3d38f8	-0.18478763
172	0xbecc9e39	-0.39964464
173	0xbe3a25b2	-0.18178442
174	0xbe79832a	-0.24366441
175	0xbe4063ce	-0.18788072
176	0xbf0555d5	-0.52084094
177	0x3e5dd704	0.21664053
178	0xbf064235	-0.52444774
179	0xbee63734	-0.44963992
180	0xbef1848a	-0.47171432
181	0x3e81a3bf	0.2532024
182	0xbeb1f60a	-0.34758025
183	0xbe740564	-0.23830181
184	0x3ecccfc9	0.40002277
185	0x3e9cf46e	0.30655235
186	0x3e9deccc	0.30844724
187	0xbf268887	-0.65052074
188	0xbed3fa22	-0.41401774
189	0xbe55707a	-0.20843688
190	0x3e8f7a2f	0.28022906
191	0x3c102ad7	0.008799276
192	0xbedd14b5	-0.4317986
193	0x3cf4715b	0.029839208
194	0xbee59624	-0.4484111
195	0xbe0941bc	-0.13403982
196	0xbe22912c	-0.15875691
197	0x3e3658cf	0.17807315
198	0x3e4b8c51	0.19877745
199	0xbdce2dc0	-0.1006732
200	0x3dcbb909	0.09947402
201	0xbe1de75e	-0.15420291
202	0x3e962181	0.29322436
203	0xbc350caf	-0.011050387
204	0x3e1ec428	0.15504515
205	0xbe7f78cf	-0.24948429
206	0x3ee292b7	0.4425256
207	0xbe36dec9	-0.17858423
208	0xbe61cdc0	-0.22051144
209	0x3e02dcc4	0.12779528
210	0x3ef5e33c	0.4802493
211	0x3e36c3d4	0.1784814
212	0x3e22e794	0.15908653
213	0xbe32ff08	-0.17480099
214	0xbb8e60f6	-0.0043450547
215	0x3eecc97e	0.46247476
216	0xbf10f80b	-0.56628484
217	0xbd927c50	-0.07152617
218	0xbec9975d	-0.39373294
219	0x3ddc5ab0	0.10759485
220	0x3e4b5918	0.19858205
221	0xbde10900	-0.10988045
222	0xbd0ab756	-0.03386625
223	0x3e850de4	0.2598716
224	0xbe891798	-0.26775813
225	0xbf0c1389	-0.5471731
226	0x3f03fc6d	0.51557046
227	0xbe89a17a	-0.2688101
228	0xbcea830f	-0.028626947
229	0xbd2e7cb7	-0.042599406
230	0x3d1d1d7a	0.03835819
231	0xbee60e1f	-0.4493265
232	0x3d618c54	0.055065468
233	0xbec10106	-0.37696093
234	0xbe995148	-0.29944825
235	0x3e0d3f98	0.1379379
236	0xbe9a43a0	-0.3012972
237	0xbead6e89	-0.33873394
238	0xbe2e0ca1	-0.16997005
239	0xbe5e1a64	-0.21689755
240	0xbe76e8fa	-0.24112311
241	0xbe6e8289	-0.23291983
242	0xbdebb81c	-0.115097255
243	0xbeef3520	-0.4672022
244	0xbeb2ec41	-0.34945872
245	0xbea0fd55	-0.31443277
246	0x3def48d7	0.11683815
247	0x3e99c299	0.3003128
248	0xbecfa510	-0.4055562
249	0x3e60561d	0.2190785
250	0x3dd26b46	0.10274367
251	0x3e89ebcf	0.2693772
252	0xbf09aa68	-0.53775644
253	0xbed6f49d	-0.419835
254	0xbefe1728	-0.49627042
255	0xbee3c90f	-0.44489333

fc2.weight f4 [256, 256]
0	0x3e5ae786	0.21377382
1	0x3c072ea2	0.008250864
2	0x3cd973c4	0.02654446
3	0xbd16460c	-0.036687896
4	0x3d02ce9a	0.03193531
5	0xbd1ad7f8	-0.03780362
6	0x3cfff1d8	0.03124325
7	0x3aadf3bf	0.0013271495
8	0xbc806380	-0.015672445
9	0xbdef7470	-0.116921306
10	0xbbcc9a9f	-0.006244018
11	0x3c19dea7	0.009391463
12	0x3e5f0666	0.21779785
13	0xbd089624	-0.03334631
14	0x3e1d053d	0.1533403
15	0xbbe08f60	-0.006853029
16	0xbe1d1550	-0.15340161
17	0x3d48ba32	0.049005695
18	0x3d933608	0.0718804
19	0x3c2d9eb5	0.010596921
20	0xbe15fd2b	-0.14647357
21	0x3c8a1a04	0.016858108
22	0xbcff6372	-0.031175349
23	0x3cbd4ac0	0.023106933
24	0xbc032de2	-0.008006545
25	0xbcf6c180	-0.030121565
26	0x3d961c0a	0.07329567
27	0xbc16bcc0	-0.009200275
28	0xbc7471dd	-0.014919725
29	0xbcef7808	-0.02923204
30	0x3d7c0300	0.0615263
31	0xbcd8cd6d	-0.026465142
32	0xbcc683a5	-0.024232695
33	0xbe0a5a13	-0.13510923
34	0xbc8637ec	-0.016384088
35	0xbe1693af	-0.14704774
36	0xbd4b7060	-0.049667716
37	0x3b6724ff	0.0035269854
38	0x3d5afebc	0.05346559
39	0xbe14e059	-0.14538707
40	0xbd4cfc35	-0.05004521
41	0x3d0a7604	0.033803955
42	0xbd1e7498	-0.03868541
43	0x3d18b82c	0.037285015
44	0x3d38b7c8	0.045097142
45	0x3ba8f71f	0.0051564123
46	0x3da114b6	0.078652784
47	0x3d202592	0.03909833
48	0x3d043a6e	0.032282285
49	0x3d0a2ae3	0.033732306
50	0xbe18706a	-0.14886633
51	0x3d9baa63	0.07600858
52	0x3d2e56ae	0.042563133
53	0x3dc29932	0.09501876
54	0xbe7b92a2	-0.24567655
55	0xbc85e000	-0.016342163
56	0xbe0892f6	-0.13337311
57	0x3da7c064	0.081909925
58	0xbddcadc8	-0.10775334
59	0xbd5117db	-0.05104814
60	0x3dcd16b6	0.100140974
61	0x3d262380	0.0405612
62	0x3d34ac8d	0.04410987
63	0xbc8b491f	-0.01700264
64	0xbd04b1c2	-0.032396086
65	0xbd7d2fbe	-0.06181311
66	0xbd059189	-0.032609496
67	0x3d455663	0.048178088
68	0xbe84013b	-0.2578219
69	0x3cb79898	0.02241163
70	0x3d638416	0.05554589
71	0x3b781f20	0.0037860349
72	0xbda1fd43	-0.07909634
73	0x3d51e36a	0.05124227
74	0x3cdaa1d4	0.026688494
75	0x3d298604	0.041387573
76	0xbe8a9e6e	-0.27073997
77	0x3e284575	0.16432746
78	0x3d519ff5	0.051177938
79	0xbe5f8da2	-0.21831372
80	0xbcc14c99	-0.023596095
81	0x3d1d259b	0.03836594
82	0x3c4d0c20	0.012515098
83	0xbd1bb4c1	-0.038014177
84	0xbc1d0918	-0.009584688
85	0x3cd24be8	0.02567096
86	0xbc8cec15	-0.017202416
87	0xbc88ab36	-0.016683202
88	0x3c243937	0.010023407
89	0xbca229a7	-0.019795252
90	0xbcf01f24	-0.029311724
91	0x3cfe5541	0.031046512
92	0xbcbd4cc8	-0.023107901
93	0x3d4009c8	0.046884328
94	0x3d52a7e1	0.051429633
95	0xbd76eef9	-0.060286496
96	0xbd3bcd54	-0.045850113
97	0xbdf1d491	-0.11808122
98	0x3c06a320	0.008217603
99	0xbd45fd8c	-0.048337504
100	0xbc4c3260	-0.012463182
101	0xbd760282	-0.060060985
102	0x3ce4cbec	0.027929269
103	0x3e364913	0.17801313
104	0x3d00364a	0.031301774
105	0x3dd024d3	0.10163274
106	0xbdc94f58	-0.09829587
107	0x3d763ea2	0.060118325
108	0xbdbee962	-0.09321858
109	0xbd6f3564	-0.058400527
110	0x3d8e04fd	0.06934545
111	0xbcd05938	-0.025433168
112	0xb99762e6	-0.0002887465
113	0x3d7ccfdf	0.06172168
114	0xbe43b26f	-0.19111036
115	0x3d891506	0.06693463
116	0x3c268528	0.010163583
117	0x38190413	3.6481837e-05
118	0x3c6bdeb8	0.014396362
119	0xbcfb2df3	-0.030661559
120	0x3af4fec0	0.0018691644
121	0x3e2601ac	0.16211575
122	0xbd747b6b	-0.059688013
123	0xbd6a672e	-0.057227306
124	0x3d07bc64	0.033138648
125	0x3c454280	0.012039781
126	0xbd2a540c	-0.04158406
127	0x3d4b2638	0.049596995
128	0x3c919e4a	0.017775673
129	0x3c3e0448	0.0115977
130	0xbd164e92	-0.036696024
131	0xbd6a074d	-0.05713587
132	0x3e22f326	0.15913066
133	0xbd0f68c6	-0.03501203
134	0xbc6721fb	-0.014107223
135	0x3d379812	0.04482276
136	0x3b9ebd70	0.00484436
137	0x3cf64110	0.030060321
138	0xbdc6b2e9	-0.09702093
139	0x3cb0a70a	0.021564025
140	0xbe2f5a77	-0.17124353
141	0x3d602b82	0.054728992
142	0xbdd5d36f	-0.104407184
143	0x3d109dac	0.035306618
144	0xbc4fc632	-0.012681531
145	0xbd01335a	-0.031543113
146	0x3ca8d17c	0.020607702
147	0xbd06d547	-0.03291824
148	0xbc98c84e	-0.0186502
149	0x3b07e441	0.0020735415
150	0xbc7a6c8a	-0.015284667
151	0x3d14bd2c	0.03631322
152	0x3d0f396c	0.03496687
153	0x3ccced3c	0.025015466
154	0x3d08fa00	0.033441544
155	0xbe3c69b5	-0.18399699
156	0x3d7a222e	0.061067753
157	0x3dd31864	0.103073865
158	0xbd5f43f2	-0.054508157
159	0xbdcdf68a	-0.10056789
160	0xbd8446bf	-0.06458806
161	0xbdf2651c	-0.11835691
162	0xbc14d76a	-0.009084562
163	0x3b9bc41a	0.0047536017
164	0x3c1f6610	0.009728923
165	0x3d268ebe	0.040663473
166	0xbca9ccf8	-0.02072762
167	0x3d4d0534	0.05005379
168	0x3d4c0ca3	0.04981674
169	0xbe884cf9	-0.26621225
170	0xbd059d6e	-0.03262084
171	0xbd4f1f88	-0.05056718
172	0xbdac79ba	-0.08421655
173	0xbcc74f38	-0.024329767
174	0xbb9a26e0	-0.0047043413
175	0xbc790760	-0.015199512
176	0xbd0157f8	-0.031578034
177	0xbd0e3724	-0.034720555
178	0xbdd1974f	-0.10233938
179	0x3d7b2552	0.06131489
180	0xbcbdc310	-0.023164302
181	0x3d22f8e1	0.03978813
182	0x3cd4d650	0.025981098
183	0xbb6c9760	-0.0036100969
184	0x3da85cf1	0.08220852
185	0x3d1ff508	0.03905204
186	0x3e3475c9	0.17623056
187	0xbde72b3c	-0.11287543
188	0x3d2492b2	0.040178962
189	0xbe0e888a	-0.13919273
190	0xbdace145	-0.08441404
191	0x3da6dfa3	0.08148124
192	0x3d3fe89a	0.046852686
193	0xbd7c8860	-0.061653495
194	0x3cf6dcb0	0.030134529
195	0xbdeaa87d	-0.11457918
196	0xbd5f4770	-0.054511487
197	0xba834157	-0.001001398
198	0xbd5802a1	-0.052736882
199	0xbd274fa4	-0.040847436
200	0xbc3a8075	-0.011383166
201	0xbe1b7bcf	-0.15183948
202	0x3ed5fd08	0.4179461
203	0x3d6f85e8	0.058477312
204	0x3c8b6574	0.01701615
205	0xbdbb0596	-0.09131925
206	0x3dae64b2	0.085153
207	0xbdcf1798	-0.10111922
208	0xbe2fa8fd	-0.17154308
209	0xbb4e75bf	-0.0031503288
210	0xbc258efa	-0.010104889
211	0xbd2ef8c6	-0.042717718
212	0xbe32b925	-0.1745344
213	0xbd7921ce	-0.060823254
214	0x3d1ad72f	0.03780287
215	0x3e09160f	0.13387321
216	0xbd067608	-0.032827407
217	0xbb1529a0	-0.0022760406
218	0x3c3f5670	0.011678323
219	0xbc87fb48	-0.016599312
220	0xbc37527d	-0.0111891
221	0x3db39fd0	0.08770716
222	0xbdaf6b25	-0.08565358
223	0xbbdddf30	-0.006770991
224	0x3d18c87b	0.037300568
225	0xbde4f180	-0.11178875
226	0x3b1f1d85	0.002427907
227	0xbe481b96	-0.19541773
228	0xbd44c805	-0.048042316
229	0xbe235c4b	-0.15953176
230	0x3e226e4e	0.1586239
231	0xbccb6db0	-0.024832577
232	0xbc845b9d	-0.016156966
233	0x3d91a0a3	0.07110717
234	0x3c7da9b8	0.015482359
235	0xbd58191c	-0.05275832
236	0x3c70a030	0.014686629
237	0x3d437ad2	0.047724552
238	0x3de05f4d	0.10955677
239	0xbd2578d4	-0.040398434
240	0x3d7a95da	0.061178066
241	0x3d1b56ba	0.037924506
242	0xbd33fcfd	-0.04394244
243	0x3d1a0bf6	0.037609063
244	0xbc0300a0	-0.0079957545
245	0xbd714b72	-0.05890984
246	0x3e58440a	0.21119705
247	0x3d7bf96e	0.06151717
248	0xbc999478	-0.018747553
249	0xbd672475	-0.056431253
250	0xbd554eb9	-0.05207703
251	0x3cca103c	0.024665944
252	0x3d5a3fb0	0.053283393
253	0x3d1db0ee	0.03849881
254	0x3c2d8f20	0.010593206
255	0xbd41cfed	-0.047317434

fc2.bias f4 [256]
0	0x3d7616b5	0.06008025
1	0xbd152cef	-0.036419805
2	0xbd8fbd30	-0.070185065
3	0x3cb8e455	0.022569815
4	0xbd88c91f	-0.06678986
5	0x3c82910e	0.015938308
6	0x3d8ddfe3	0.06927469
7	0x3cca683f	0.024707912
8	0x3d8c9787	0.06864839
9	0x3d0bb258	0.03410563
10	0xbca77d31	-0.020445438
11	0xbc86dc83	-0.01646257
12	0x3d9d8256	0.07690875
13	0x3cfcabeb	0.030843696
14	0x3e05416a	0.13013235
15	0x3d757cd6	0.059933506
16	0x3d41a725	0.047278542
17	0xbcd177e5	-0.025569865
18	0x3be3b4b3	0.0069490313
19	0xbd9a0082	-0.07519628
20	0xbc5aff30	-0.0133665055
21	0xbc9bf952	-0.019039784
22	0xbd810d51	-0.06301368
23	0xbca3d52e	-0.019999113
24	0x3ba746ae	0.005104861
25	0xbc2a3c5a	-0.0103903655
26	0x3bb67775	0.0055684396
27	0xbd9563e3	-0.072944425
28	0x3db4b1bb	0.08822962
29	0x3dc2d8c2	0.095139995
30	0xbd76a480	-0.060215473
31	0xbd8d1452	-0.068886414
32	0x3cced8b5	0.025249818
33	0xbce57bf1	-0.028013201
34	0x3d91b0f6	0.07113831
35	0xbdd48399	-0.10376663
36	0xbcbf7f61	-0.023376169
37	0x3dd2288a	0.102616385
38	0x3db37a1f	0.08763527
39	0xbd48c91e	-0.049019925
40	0x3dac370e	0.08408938
41	0x3d98d975	0.07463352
42	0xbd88e1bd	-0.06683681
43	0xbcaa5d1e	-0.020796355
44	0xbc039522	-0.0080311615
45	0x3dfea712	0.1243421
46	0x3cd19a5e	0.025586303
47	0x3c9003c0	0.017579913
48	0x3d2552c2	0.040362127
49	0xbd1186a5	-0.035528798
50	0x3d866482	0.06562139
51	0x3d328caf	0.043591198
52	0x3d24efe1	0.04026783
53	0xbcf98e38	-0.030463323
54	0xbd56bbd8	-0.052425236
55	0x3dcc3208	0.0997048
56	0x3da30214	0.07959381
57	0xbcb3212e	-0.021866407
58	0x3dd6e170	0.104922175
59	0x3da49804	0.08036807
60	0xbcf1c49c	-0.029512696
61	0xbcd953cc	-0.026529215
62	0xbd468711	-0.048468653
63	0x3d038123	0.032105576
64	0xbd0c3b9a	-0.034236528
65	0xbda10ef7	-0.078641824
66	0x3cc233fa	0.023706425
67	0x3dc47926	0.0959342
68	0x3d122fb1	0.035690013
69	0xbc4ce7fa	-0.012506479
70	0x3deb918f	0.115023725
71	0xbcca29d0	-0.02467814
72	0xbd9905d6	-0.07471816
73	0x3d0d2b68	0.034465224
74	0x3ba5adb4	0.0050561074
75	0x3d91d73f	0.07121133
76	0x3d9bce06	0.07607655
77	0xbd58b0c8	-0.052902967
78	0x3d3a82a7	0.045534756
79	0x3d206ce0	0.03916633
80	0xbd96b17c	-0.07358071
81	0x3d0d7a43	0.034540426
82	0xbd21b42d	-0.03947847
83	0x3d624a50	0.05524665
84	0xbbcf9b0c	-0.0063356217
85	0x3b8c774c	0.0042866822
86	0x3c4a9dca	0.012366721
87	0xbd81b941	-0.063341625
88	0xbd54d6de	-0.051962726
89	0xbd7ced18	-0.061749548
90	0x3cfbc5be	0.03073394
91	0xbc979d50	-0.01850763
92	0x3c1387dd	0.00900456
93	0x3e08430d	0.13306828
94	0xbd986b87	-0.07442384
95	0x3dae4e5e	0.08511041
96	0x3c3d096b	0.01153789
97	0x3dc9a094	0.09845081
98	0x3ce3e722	0.027820174
99	0xbdab7f65	-0.08373908
100	0x3c5ad97d	0.013357517
101	0x3aa6a466	0.001271379
102	0xbd8fd311	-0.070226796
103	0x3c54f0d3	0.01299687
104	0x3a0270ba	0.0004975904
105	0x3de95bc7	0.11394458
106	0x3d6f26b1	0.05838651
107	0xbd8741be	-0.06604336
108	0x3c1a2561	0.009408326
109	0x3d6b236b	0.057406824
110	0x3cc4a453	0.024004137
111	0x3da66be2	0.08126046
112	0x3dda84e6	0.106698796
113	0x3dce0bff	0.10060882
114	0x3d76059f	0.060063954
115	0xbc1c8053	-0.009552079
116	0xbd11c9d1	-0.035592858
117	0x3dd9f832	0.106430426
118	0x37de4330	2.6495749e-05
119	0x3d950537	0.07276385
120	0x3dab7e67	0.08373719
121	0xbd9f9dd4	-0.07793775
122	0x3c5705b1	0.0131239155
123	0x3dbf8fa8	0.09353572
124	0x3d8560e1	0.06512619
125	0x3d1a90ae	0.037735634
126	0xbd135988	-0.035974056
127	0x39c24931	0.00037057095
128	0x3bb47791	0.0055074175
129	0xbd194972	-0.03742356
130	0x3daf99b3	0.08574238
131	0xbd249cad	-0.04018848
132	0xbd657527	-0.05601993
133	0x3bd86989	0.0066043776
134	0x3d2ccf2c	0.042189762
135	0x3d2c072c	0.041999027
136	0xbc660232	-0.014038609
137	0x3d04b8cf	0.03240281
138	0xbd7548ff	-0.059884068
139	0xbcbe706a	-0.023246963
140	0x3ddda912	0.10823263
141	0x3d2e6ac6	0.042582296
142	0xbde2810e	-0.110597715
143	0x3d52e1ba	0.0514848
144	0x3d749e52	0.0597213
145	0x3e003341	0.12519552
146	0x3d7b952a	0.06142155
147	0xbc310074	-0.010803331
148	0xbbbdb9d4	-0.0057899747
149	0xbc86fe70	-0.016478747
150	0x3d0ace8d	0.03388839
151	0x3b787fbe	0.0037917937
152	0x3cae1d4c	0.021254204
153	0x3c82e352	0.015977535
154	0x3a4db6c6	0.0007847365
155	0x3d89d960	0.06730914
156	0x3c8c28f3	0.01710937
157	0xbcd97077	-0.026542885
158	0xbd09587d	-0.033531655
159	0x3c4fcc2d	0.012682957
160	0x3d2db2ef	0.042406972
161	0x3d956010	0.07293713
162	0xbd359018	-0.04432687
163	0x3d051bee	0.03249734
164	0x3ca50d16	0.020147841
165	0x3d85bed4	0.06530538
166	0x3c7b1906	0.01532579
167	0xbb532451	-0.0032217691
168	0x3da66aa1	0.081258066
169	0x3c823eee	0.015899148
170	0x3c9231b8	0.017845973
171	0xbcf8afc7	-0.030357255
172	0xbc979b0d	-0.018506551
173	0xbce6ace2	-0.028158609
174	0xbc94902d	-0.018135155
175	0x3c8ccee4	0.017188497
176	0x3d97d05a	0.07412787
177	0x3d06f8a3	0.032951962
178	0x3d084fe9	0.033279333
179	0xbcb0c77a	-0.021579493
180	0xbd8f88fc	-0.070085496
181	0x3dfdf745	0.124006785
182	0x3d1beada	0.03806577
183	0xbd2f96a6	-0.04286828
184	0xbc95b034	-0.018272497
185	0xbd3bd4f5	-0.04585739
186	0xbd0eddad	-0.034879375
187	0xbd0de290	-0.034639895
188	0xbd5f49bd	-0.05451368
189	0xbcaf4a1c	-0.021397643
190	0x3d5e073b	0.054206114
191	0x3d2ed781	0.04268599
192	0xbd063475	-0.03276487
193	0xbc9d91c5	-0.019234547
194	0x3bb2b51b	0.0054537184
195	0x3d65d094	0.05610712
196	0x3dcd3ef5	0.10021774
197	0x3ca0a567	0.01961012
198	0x3d8a2dbe	0.06747006
199	0x3c42182b	0.011846582
200	0xbd249cfc	-0.040188774
201	0x3db3c348	0.08777481
202	0x3ab1793e	0.0013540161
203	0x3cfa9a82	0.030591253
204	0x3c8f6786	0.017505419
205	0x3dd2665e	0.10273431
206	0x3dbebaaa	0.09312947
207	0xbd5fc477	-0.054630723
208	0x3c95c1e7	0.018280936
209	0x3de14694	0.1099979
210	0xbd97a0fb	-0.074037515
211	0x3d58ad6a	0.052899756
212	0x3c4debb3	0.012568402
213	0x3b055eec	0.0020350767
214	0xbd634cb5	-0.055493075
215	0x3d842c0d	0.064537145
216	0x3dd632a6	0.10458879
217	0x3d83d124	0.06436375
218	0x3dc8de02	0.0980797
219	0xbddb2f8e	-0.1070243
220	0x3e060e5a	0.13091412
221	0x3c1fac74	0.009745706
222	0xbd92bfaa	-0.07165463
223	0x3d5e1dbd	0.05422758
224	0xbda02b91	-0.0782081
225	0x3d6dc4c3	0.058048975
226	0x3d8cc7a0	0.06874013
227	0xbd0a17b8	-0.033714026
228	0xbd0ce6c6	-0.03439977
229	0x3dc32336	0.095282
230	0xbda3d02c	-0.0799869
231	0x3cd7cc92	0.026342664
232	0x3d186147	0.037202146
233	0x3d822a3a	0.0635571
234	0x3d1d1275	0.03834768
235	0xbca0ecc4	-0.019644149
236	0xbc30a2b0	-0.010780975
237	0xbd4afac4	-0.049555555
238	0xbd0ab565	-0.033864398
239	0xbd846519	-0.06464595
240	0x3d0927cd	0.033485223
241	0x3b3a5b89	0.0028435907
242	0x3d23652c	0.039891407
243	0x3c89b43a	0.016809572
244	0x3dc770d3	0.097383164
245	0x3dafcf14	0.08584419
246	0x3d3effbd	0.04663061
247	0xbda554dc	-0.08072826
248	0xbc1dd77d	-0.009633896
249	0x3d94597c	0.0724363
250	0xbc9a9c09	-0.018873231
251	0xbc74f38b	-0.014950643
252	0xbca1eed9	-0.019767212
253	0x3df969a9	0.12178356
254	0x3d5a0099	0.053223226
255	0x3c937f89	0.01800515

fc3.weight f4 [3, 256]
0	0x3d962172	0.07330598
1	0x3da5b2fd	0.0809078
2	0xbd80fd8c	-0.0629836
3	0xbde9fb5b	-0.114248954
4	0xbe0c6322	-0.13709691
5	0xbc24c4d9	-0.010056698
6	0xbe002576	-0.1251429
7	0xb9f80384	-0.00047304865
8	0x3c337035	0.010952045
9	0x3da57a59	0.080799766
10	0x3caa31a8	0.020775631
11	0x3db723a3	0.08942344
12	0x3c812099	0.015762614
13	0xbddab404	-0.106788665
14	0x3e0d2bf6	0.13786301
15	0xbd82f212	-0.063938275
16	0x3db369fb	0.087604485
17	0xbd7f183d	-0.062278975
18	0xbd90134a	-0.07034929
19	0xbc0b64da	-0.008507932
20	0xbc86376a	-0.016383845
21	0xbdd40208	-0.1035195
22	0xbdad5643	-0.08463719
23	0xbd34d969	-0.04415265
24	0x3dd9fa90	0.10643494
25	0xbe005c84	-0.12535292
26	0xbdcc8e99	-0.09988136
27	0x3c3812a5	0.011234914
28	0x3dde8aa4	0.10866287
29	0x3d390f1b	0.04518042
30	0xbbb3cc5b	-0.0054870076
31	0xbda0d7b0	-0.07853639
32	0x3d731aac	0.05935161
33	0xbd6b6c3a	-0.05747626
34	0xbc2d9ceb	-0.010596494
35	0xbc41e769	-0.011834958
36	0xbd8b559e	-0.068034396
37	0x3d89e417	0.06732958
38	0x3dc418fe	0.095750794
39	0xbdebadf7	-0.115077905
40	0x3cfffcc3	0.031248456
41	0x3dc43b41	0.09581614
42	0xbd47447d	-0.0486493
43	0xba919826	-0.0011107966
44	0x3ce14225	0.02749736
45	0x3d82d07e	0.06387423
46	0xbd760b0e	-0.060069136
47	0xbd46ef4a	-0.048568048
48	0xbd1aed4e	-0.037823968
49	0xbdf8a879	-0.121415086
50	0xbdf294da	-0.118447974
51	0x3db5e4bb	0.088815175
52	0x3d802375	0.06256763
53	0xbd6b725c	-0.05748211
54	0xbdeada0b	-0.1146737
55	0x3dacce73	0.084378146
56	0x3ddd4f82	0.108061805
57	0xbd5b6cc8	-0.05357054
58	0xbd30b8e3	-0.04314507
59	0x3d035d9b	0.03207169
60	0xbdb99554	-0.09061685
61	0xbcb4934c	-0.022042893
62	0xbd890354	-0.06690088
63	0x3d8ebd2f	0.06969678
64	0x3b941e2a	0.0045201974
65	0x3c5f4174	0.013626445
66	0x3d161545	0.036641378
67	0x3d7c9c55	0.061672527
68	0xbbb278b1	-0.0054465164
69	0xbdb50a3e	-0.08839844
70	0x3d87e210	0.06634915
71	0xbdfad796	-0.12248151
72	0xbdd95e14	-0.10613647
73	0x3d6bdacf	0.05758172
74	0x3cd20170	0.025635451
75	0x3d9f5d19	0.07781429
76	0x3d33791a	0.043816663
77	0xbd8284be	-0.06372975
78	0x3d5ab69c	0.053396806
79	0xbcbdad86	-0.023154031
80	0xbde2bdeb	-0.1107138
81	0x3dca7572	0.09885682
82	0xbda30ecb	-0.07961806
83	0x3c981ce6	0.018568467
84	0xbdb60e79	-0.08889479
85	0x3da41417	0.08011644
86	0xbd88d92d	-0.06682048
87	0xbdb45c4c	-0.08806667
88	0xbcc515ff	-0.02405834
89	0xbde65e32	-0.11248435
90	0x3d3b4e13	0.045728754
91	0xbd86b434	-0.0657734
92	0xbdc138c7	-0.094346575
93	0x3de72bce	0.11287652
94	0x3c1e5fb2	0.00966637
95	0x3daee0a6	0.08538942
96	0xbafd56a9	-0.0019328195
97	0x3e00ce39	0.12578668
98	0x3d6668a0	0.056252122
99	0xbc586e58	-0.013209902
100	0x3d43b51e	0.04778015
101	0xbce88fda	-0.028388906
102	0xbdc49d4c	-0.096003145
103	0x3ddab920	0.10679841
104	0x3dcae7f5	0.099075235
105	0x3d85256e	0.0650128
106	0x3d74c6d0	0.059759915
107	0xbd3f9f35	-0.04678269
108	0xbd1b1ce6	-0.037869357
109	0x3d905148	0.07046753
110	0xbda2ef75	-0.07955829
111	0x3d90c7df	0.070693724
112	0x3d568232	0.052370258
113	0x3d2799ee	0.040918283
114	0x3cc88dd0	0.024481684
115	0x3d1d986c	0.03847544
116	0xbdc78f1d	-0.097440936
117	0x3daaa705	0.08332638
118	0xbd179b90	-0.03701359
119	0x3dd30a5a	0.10304709
120	0x3de8b9aa	0.113635376
121	0x3d129499	0.035786245
122	0xbd8114a8	-0.06302768
123	0x3d1ccfbd	0.038284052
124	0x3d0f4ef8	0.03498742
125	0xbc320c4e	-0.0108671915
126	0xbacbcab8	-0.0015548086
127	0x3d4358b1	0.047692005
128	0xbd924581	-0.07142163
129	0xbdccfd1c	-0.10009214
130	0x3d7fc567	0.062444117
131	0xbd5689b3	-0.052377414
132	0xbc210ee7	-0.009830213
133	0x3db66d18	0.08907527
134	0xbde14fc6	-0.11001544
135	0xbd092e1e	-0.033491246
136	0x3d88d103	0.06680491
137	0xbd6bcae6	-0.057566546
138	0xbd43164b	-0.047628682
139	0xbd6a6973	-0.05722947
140	0x3e065df8	0.13121784
141	0x3d123264	0.035692587
142	0x3cd94d29	0.02652605
143	0x3e0a0245	0.13477428
144	0x3d880e21	0.0664332
145	0x3de5bc13	0.11217513
146	0xbd8c6a74	-0.06856242
147	0xbda5384e	-0.0806738
148	0x3df88cb0	0.12136209
149	0xbdd92599	-0.10602874
150	0xbdb16b0a	-0.08662994
151	0x3d9703ca	0.073737696
152	0x3d36b423	0.044605386
153	0x3d143ee1	0.03619278
154	0xbddcc1ac	-0.107791275
155	0xbba4ec24	-0.005033033
156	0x3cdd1a50	0.026990086
157	0xbdac22ea	-0.08405097
158	0xbd2cedf5	-0.04221912
159	0x3dd5b526	0.10434942
160	0xba5e6e18	-0.0008485033
161	0x3d925c9b	0.07146569
162	0xbd49ad05	-0.04923727
163	0x3da78745	0.081800975
164	0x3c06f924	0.008238111
165	0x3d94e283	0.07269766
166	0x3c1c7c7c	0.009551164
167	0x3d8c6d3a	0.06856771
168	0x3db758a4	0.08952454
169	0xbde76eb2	-0.1130041
170	0x3ced853a	0.028994191
171	0xbdba7f83	-0.09106352
172	0xbdc44ace	-0.0958458
173	0xbdef886e	-0.11695944
174	0xbd5bb630	-0.053640544
175	0x3c7d8eea	0.015475968
176	0x3c993e9d	0.018706614
177	0x3d9a2564	0.07526663
178	0x3d4c01ee	0.049806528
179	0xbdc83e77	-0.09777539
180	0x3d19d882	0.037559994
181	0x3da4f40d	0.080543615
182	0x3d2b490f	0.04181772
183	0x3bcfe09d	0.0063439147
184	0xbda1b7a8	-0.07896358
185	0xbd24fc66	-0.04027977
186	0xbdec0842	-0.115250126
187	0xbd9c6eaf	-0.07638299
188	0xbdc9c219	-0.09851474
189	0xbc9686f8	-0.018374905
190	0x3da327c7	0.07966571
191	0xbdd07106	-0.101778075
192	0xbd964f4a	-0.07339342
193	0x3ccd3012	0.025047336
194	0x3d0f7180	0.03502035
195	0x3dbb1da5	0.091365136
196	0x3d2d0db0	0.04224938
197	0x3ccacad6	0.024754923
198	0x3d9b4d31	0.075830825
199	0xbddac217	-0.10681551
200	0xbd241c9c	-0.040066347
201	0x3d80ea37	0.06294673
202	0xbb9f91ce	-0.004869676
203	0xbd5f0721	-0.054450158
204	0xbde00b51	-0.109396584
205	0x3ba6b8bb	0.0050879396
206	0x3cec29fb	0.028828612
207	0x3c7b7cb0	0.015349552
208	0x3d9ffe23	0.078121446
209	0x3db65331	0.08902586
210	0xbd1c28bb	-0.03812478
211	0x3dbbed68	0.09176141
212	0xbc25bd26	-0.010115897
213	0x3db0bbda	0.0862958
214	0xbd50a36b	-0.050937098
215	0x3d8429b7	0.06453269
216	0xbd0933a5	-0.033496518
217	0x3d920268	0.07129365
218	0x3d3d1187	0.046159294
219	0xbd9467b7	-0.072463445
220	0x3e120ff7	0.14263903
221	0xbddde62b	-0.10834917
222	0x3c98f376	0.018670779
223	0x3d707d88	0.058713466
224	0xbdf4d7ea	-0.11955245
225	0x3ce66766	0.028125476
226	0x3e0ee20d	0.13953419
227	0xbd88aadc	-0.06673214
228	0xbd6607db	-0.056159835
229	0x3d00eaaf	0.03147381
230	0xbded7398	-0.115943134
231	0xbd66bd67	-0.056332972
232	0xbdd43152	-0.103609696
233	0x3ddbb0fe	0.10727118
234	0x3cf708f8	0.030155644
235	0xbd778553	-0.060429882
236	0xbd8b6337	-0.06806033
237	0xbdce54f4	-0.10074797
238	0xbcaef00f	-0.021354703
239	0xbb12ad40	-0.0022381097
240	0xbccb5297	-0.024819655
241	0xbd5624b0	-0.05228108
242	0x3d3224d8	0.04349217
243	0xbcb40fdc	-0.021980219
244	0x3d107d96	0.035276018
245	0xbc829d47	-0.015944136
246	0x3d9e1644	0.077190906
247	0x3b2c8ce3	0.0026329092
248	0xbd2c5450	-0.042072594
249	0x3cd8dfe4	0.026473947
250	0xbd74972a	-0.059714474
251	0x3d1cf810	0.03832251
252	0xbbb1ac49	-0.0054221493
253	0x3dcbc974	0.099505335
254	0x3c935224	0.017983504
255	0x3d5eaf24	0.054366246

fc3.bias f4 [3]
0	0x3c36db6a	0.011160711
1	0xbd2ffb85	-0.042964477
2	0x3d759ebc	0.059965834
